…
2026-05-06 12:44:42,001 [INFO ] +-----------------------------------------+-----------------------------+----------------+----------+
| Layer                                   | Input Shape                 | Output Shape   | #Param   |
|-----------------------------------------+-----------------------------+----------------+----------|
| GraphModule                             |                             |                | 64,374   |
| ├─(node_emb)ModuleDict                  | --                          | --             | 60       |
| │    └─(node)Linear                     | [81, 2]                     | [81, 20]       | 60       |
| ├─(edge_emb)ModuleDict                  | --                          | --             | 280      |
| │    └─(node__to__node)Linear           | [60, 6]                     | [60, 20]       | 140      |
| │    └─(node__rev_to__node)Linear       | [60, 6]                     | [60, 20]       | 140      |
| ├─(convs)ModuleList                     | --                          | --             | 48,640   |
| │    └─(0)ModuleDict                    | --                          | --             | 24,320   |
| │    │    └─(node__to__node)PNAConv     | [81, 20], [2, 60], [60, 20] | [81, 20]       | 12,160   |
| │    │    └─(node__rev_to__node)PNAConv | [81, 20], [2, 60], [60, 20] | [81, 20]       | 12,160   |
| │    └─(1)ModuleDict                    | --                          | --             | 24,320   |
| │    │    └─(node__to__node)PNAConv     | [81, 20], [2, 60], [60, 20] | [81, 20]       | 12,160   |
| │    │    └─(node__rev_to__node)PNAConv | [81, 20], [2, 60], [60, 20] | [81, 20]       | 12,160   |
| ├─(batch_norms)ModuleList               | --                          | --             | 80       |
| │    └─(0)ModuleDict                    | --                          | --             | 40       |
| │    │    └─(node)BatchNorm             | [81, 20]                    | [81, 20]       | 40       |
| │    └─(1)ModuleDict                    | --                          | --             | 40       |
| │    │    └─(node)BatchNorm             | [81, 20]                    | [81, 20]       | 40       |
| ├─(emlps)ModuleList                     | --                          | --             | 6,560    |
| │    └─(0)ModuleList                    | --                          | --             | 3,280    |
| │    │    └─(0)ModuleDict               | --                          | --             | 2,440    |
| │    │    └─(1)ModuleDict               | --                          | --             | --       |
…
| │    └─(1)ModuleList                    | --                          | --             | 3,280    |
| │    │    └─(0)ModuleDict               | --                          | --             | 2,440    |
| │    │    └─(1)ModuleDict               | --                          | --             | --       |
| │    │    └─(2)ModuleDict               | --                          | --             | 840      |
| ├─(mlp)ModuleList                       | --                          | --             | 8,754    |
| │    └─(0)ModuleDict                    | --                          | --             | 6,100    |
| │    │    └─(node__to__node)Linear      | [60, 60]                    | [60, 50]       | 3,050    |
| │    │    └─(node__rev_to__node)Linear  | [60, 60]                    | [60, 50]       | 3,050    |
| │    └─(1)ModuleDict                    | --                          | --             | --       |
| │    │    └─(node__to__node)ReLU        | [60, 50]                    | [60, 50]       | --       |
| │    │    └─(node__rev_to__node)ReLU    | [60, 50]                    | [60, 50]       | --       |
| │    └─(2)ModuleDict                    | --                          | --             | --       |
| │    │    └─(node__to__node)Dropout     | [60, 50]                    | [60, 50]       | --       |
| │    │    └─(node__rev_to__node)Dropout | [60, 50]                    | [60, 50]       | --       |
| │    └─(3)ModuleDict                    | --                          | --             | 2,550    |
| │    │    └─(node__to__node)Linear      | [60, 50]                    | [60, 25]       | 1,275    |
| │    │    └─(node__rev_to__node)Linear  | [60, 50]                    | [60, 25]       | 1,275    |
| │    └─(4)ModuleDict                    | --                          | --             | --       |
| │    │    └─(node__to__node)ReLU        | [60, 25]                    | [60, 25]       | --       |
| │    │    └─(node__rev_to__node)ReLU    | [60, 25]                    | [60, 25]       | --       |
| │    └─(5)ModuleDict                    | --                          | --             | --       |
| │    │    └─(node__to__node)Dropout     | [60, 25]                    | [60, 25]       | --       |
| │    │    └─(node__rev_to__node)Dropout | [60, 25]                    | [60, 25]       | --       |
| │    └─(6)ModuleDict                    | --                          | --             | 104      |
| │    │    └─(node__to__node)Linear      | [60, 25]                    | [60, 2]        | 52       |
| │    │    └─(node__rev_to__node)Linear  | [60, 25]                    | [60, 2]        | 52       |
+-----------------------------------------+-----------------------------+----------------+----------+
2026-05-06 12:44:42,228 [INFO ] Train F1: 0.0000
2026-05-06 12:44:42,365 [INFO ] Validation F1: 0.0000
2026-05-06 12:44:42,365 [INFO ] Test F1: 0.0000
2026-05-06 12:44:42,455 [INFO ] Train F1: 0.0000
2026-05-06 12:44:42,517 [INFO ] Validation F1: 0.0000
2026-05-06 12:44:42,517 [INFO ] Test F1: 0.0000
…
2026-05-06 12:46:40,276 [INFO ] +-----------------------------------------+-----------------------------------+----------------+----------+
| Layer                                   | Input Shape                       | Output Shape   | #Param   |
|-----------------------------------------+-----------------------------------+----------------+----------|
| GraphModule                             |                                   |                | 64,374   |
| ├─(node_emb)ModuleDict                  | --                                | --             | 60       |
| │    └─(node)Linear                     | [5730, 2]                         | [5730, 20]     | 60       |
| ├─(edge_emb)ModuleDict                  | --                                | --             | 280      |
| │    └─(node__to__node)Linear           | [6000, 6]                         | [6000, 20]     | 140      |
| │    └─(node__rev_to__node)Linear       | [5979, 6]                         | [5979, 20]     | 140      |
| ├─(convs)ModuleList                     | --                                | --             | 48,640   |
| │    └─(0)ModuleDict                    | --                                | --             | 24,320   |
| │    │    └─(node__to__node)PNAConv     | [5730, 20], [2, 6000], [6000, 20] | [5730, 20]     | 12,160   |
| │    │    └─(node__rev_to__node)PNAConv | [5730, 20], [2, 5979], [5979, 20] | [5730, 20]     | 12,160   |
| │    └─(1)ModuleDict                    | --                                | --             | 24,320   |
| │    │    └─(node__to__node)PNAConv     | [5730, 20], [2, 6000], [6000, 20] | [5730, 20]     | 12,160   |
| │    │    └─(node__rev_to__node)PNAConv | [5730, 20], [2, 5979], [5979, 20] | [5730, 20]     | 12,160   |
| ├─(batch_norms)ModuleList               | --                                | --             | 80       |
| │    └─(0)ModuleDict                    | --                                | --             | 40       |
| │    │    └─(node)BatchNorm             | [5730, 20]                        | [5730, 20]     | 40       |
| │    └─(1)ModuleDict                    | --                                | --             | 40       |
| │    │    └─(node)BatchNorm             | [5730, 20]                        | [5730, 20]     | 40       |
| ├─(emlps)ModuleList                     | --                                | --             | 6,560    |
| │    └─(0)ModuleList                    | --                                | --             | 3,280    |
| │    │    └─(0)ModuleDict               | --                                | --             | 2,440    |
| │    │    └─(1)ModuleDict               | --                                | --             | --       |
…
| │    │    └─(0)ModuleDict               | --                                | --             | 2,440    |
| │    │    └─(1)ModuleDict               | --                                | --             | --       |
| │    │    └─(2)ModuleDict               | --                                | --             | 840      |
| ├─(mlp)ModuleList                       | --                                | --             | 8,754    |
| │    └─(0)ModuleDict                    | --                                | --             | 6,100    |
| │    │    └─(node__to__node)Linear      | [6000, 60]                        | [6000, 50]     | 3,050    |
| │    │    └─(node__rev_to__node)Linear  | [5979, 60]                        | [5979, 50]     | 3,050    |
| │    └─(1)ModuleDict                    | --                                | --             | --       |
| │    │    └─(node__to__node)ReLU        | [6000, 50]                        | [6000, 50]     | --       |
| │    │    └─(node__rev_to__node)ReLU    | [5979, 50]                        | [5979, 50]     | --       |
| │    └─(2)ModuleDict                    | --                                | --             | --       |
| │    │    └─(node__to__node)Dropout     | [6000, 50]                        | [6000, 50]     | --       |
| │    │    └─(node__rev_to__node)Dropout | [5979, 50]                        | [5979, 50]     | --       |
| │    └─(3)ModuleDict                    | --                                | --             | 2,550    |
| │    │    └─(node__to__node)Linear      | [6000, 50]                        | [6000, 25]     | 1,275    |
| │    │    └─(node__rev_to__node)Linear  | [5979, 50]                        | [5979, 25]     | 1,275    |
| │    └─(4)ModuleDict                    | --                                | --             | --       |
| │    │    └─(node__to__node)ReLU        | [6000, 25]                        | [6000, 25]     | --       |
| │    │    └─(node__rev_to__node)ReLU    | [5979, 25]                        | [5979, 25]     | --       |
| │    └─(5)ModuleDict                    | --                                | --             | --       |
| │    │    └─(node__to__node)Dropout     | [6000, 25]                        | [6000, 25]     | --       |
| │    │    └─(node__rev_to__node)Dropout | [5979, 25]                        | [5979, 25]     | --       |
| │    └─(6)ModuleDict                    | --                                | --             | 104      |
| │    │    └─(node__to__node)Linear      | [6000, 25]                        | [6000, 2]      | 52       |
| │    │    └─(node__rev_to__node)Linear  | [5979, 25]                        | [5979, 2]      | 52       |
+-----------------------------------------+-----------------------------------+----------------+----------+
2026-05-06 12:46:41,793 [INFO ] Train F1: 0.0000
2026-05-06 12:46:42,375 [INFO ] Validation F1: 0.0000
2026-05-06 12:46:42,376 [INFO ] Test F1: 0.0000
2026-05-06 12:46:43,806 [INFO ] Train F1: 0.0000
2026-05-06 12:46:44,253 [INFO ] Validation F1: 0.0000
2026-05-06 12:46:44,254 [INFO ] Test F1: 0.0000
…
2026-05-06 14:31:39,852 [INFO ] +-----------------------------------------+--------------------------------------+----------------+----------+
| Layer                                   | Input Shape                          | Output Shape   | #Param   |
|-----------------------------------------+--------------------------------------+----------------+----------|
| GraphModule                             |                                      |                | 64,374   |
| ├─(node_emb)ModuleDict                  | --                                   | --             | 60       |
| │    └─(node)Linear                     | [42492, 2]                           | [42492, 20]    | 60       |
| ├─(edge_emb)ModuleDict                  | --                                   | --             | 280      |
| │    └─(node__to__node)Linear           | [77318, 6]                           | [77318, 20]    | 140      |
| │    └─(node__rev_to__node)Linear       | [84124, 6]                           | [84124, 20]    | 140      |
| ├─(convs)ModuleList                     | --                                   | --             | 48,640   |
| │    └─(0)ModuleDict                    | --                                   | --             | 24,320   |
| │    │    └─(node__to__node)PNAConv     | [42492, 20], [2, 77318], [77318, 20] | [42492, 20]    | 12,160   |
| │    │    └─(node__rev_to__node)PNAConv | [42492, 20], [2, 84124], [84124, 20] | [42492, 20]    | 12,160   |
| │    └─(1)ModuleDict                    | --                                   | --             | 24,320   |
| │    │    └─(node__to__node)PNAConv     | [42492, 20], [2, 77318], [77318, 20] | [42492, 20]    | 12,160   |
| │    │    └─(node__rev_to__node)PNAConv | [42492, 20], [2, 84124], [84124, 20] | [42492, 20]    | 12,160   |
| ├─(batch_norms)ModuleList               | --                                   | --             | 80       |
| │    └─(0)ModuleDict                    | --                                   | --             | 40       |
| │    │    └─(node)BatchNorm             | [42492, 20]                          | [42492, 20]    | 40       |
| │    └─(1)ModuleDict                    | --                                   | --             | 40       |
| │    │    └─(node)BatchNorm             | [42492, 20]                          | [42492, 20]    | 40       |
| ├─(emlps)ModuleList                     | --                                   | --             | 6,560    |
| │    └─(0)ModuleList                    | --                                   | --             | 3,280    |
| │    │    └─(0)ModuleDict               | --                                   | --             | 2,440    |
| │    │    └─(1)ModuleDict               | --                                   | --             | --       |
…
| │    │    └─(0)ModuleDict               | --                                   | --             | 2,440    |
| │    │    └─(1)ModuleDict               | --                                   | --             | --       |
| │    │    └─(2)ModuleDict               | --                                   | --             | 840      |
| ├─(mlp)ModuleList                       | --                                   | --             | 8,754    |
| │    └─(0)ModuleDict                    | --                                   | --             | 6,100    |
| │    │    └─(node__to__node)Linear      | [77318, 60]                          | [77318, 50]    | 3,050    |
| │    │    └─(node__rev_to__node)Linear  | [84124, 60]                          | [84124, 50]    | 3,050    |
| │    └─(1)ModuleDict                    | --                                   | --             | --       |
| │    │    └─(node__to__node)ReLU        | [77318, 50]                          | [77318, 50]    | --       |
| │    │    └─(node__rev_to__node)ReLU    | [84124, 50]                          | [84124, 50]    | --       |
| │    └─(2)ModuleDict                    | --                                   | --             | --       |
| │    │    └─(node__to__node)Dropout     | [77318, 50]                          | [77318, 50]    | --       |
| │    │    └─(node__rev_to__node)Dropout | [84124, 50]                          | [84124, 50]    | --       |
| │    └─(3)ModuleDict                    | --                                   | --             | 2,550    |
| │    │    └─(node__to__node)Linear      | [77318, 50]                          | [77318, 25]    | 1,275    |
| │    │    └─(node__rev_to__node)Linear  | [84124, 50]                          | [84124, 25]    | 1,275    |
| │    └─(4)ModuleDict                    | --                                   | --             | --       |
| │    │    └─(node__to__node)ReLU        | [77318, 25]                          | [77318, 25]    | --       |
| │    │    └─(node__rev_to__node)ReLU    | [84124, 25]                          | [84124, 25]    | --       |
| │    └─(5)ModuleDict                    | --                                   | --             | --       |
| │    │    └─(node__to__node)Dropout     | [77318, 25]                          | [77318, 25]    | --       |
| │    │    └─(node__rev_to__node)Dropout | [84124, 25]                          | [84124, 25]    | --       |
| │    └─(6)ModuleDict                    | --                                   | --             | 104      |
| │    │    └─(node__to__node)Linear      | [77318, 25]                          | [77318, 2]     | 52       |
| │    │    └─(node__rev_to__node)Linear  | [84124, 25]                          | [84124, 2]     | 52       |
+-----------------------------------------+--------------------------------------+----------------+----------+
2026-05-06 14:52:13,779 [INFO ] Train F1: 0.0003
2026-05-06 14:52:14,095 [INFO ] Validation F1: 0.0000
2026-05-06 14:52:14,096 [INFO ] Test F1: 0.0000
2026-05-06 15:11:37,282 [INFO ] Train F1: 0.0000
2026-05-06 15:11:37,520 [INFO ] Validation F1: 0.0000
2026-05-06 15:11:37,521 [INFO ] Test F1: 0.0000
…
